…
{"number": 90302, "title": "Improve interpolate() speed for channels_last CPU videos", "time": "2022-12-06T18:27:26Z", "body": "Stack from [ghstack](https://github.com/ezyang/ghstack) (oldest at bottom):\r\n* __->__ #90302\r\n\r\nThis is the exact same PR as https://github.com/pytorch/pytorch/pull/86361, but on Videos (3D) instead of images (2D).\r\n\r\nFor torchvision training use-cases (num_threads=1), the speed-ups range in 1X-2X.  When num_threads>1 the speed-ups are a lot higher, up to ~30X\r\n\r\nBenchmarks details:\r\n<details >\r\n\r\n```\r\nmain branch=c6942dbbfbf836450898aa9a0c08aefe437d0765\r\ninput shape            output size      mode            dtype     num_threads  speed-up  main   PR\r\n(1, 3, 8, 256, 256) -> (16, 320, 320)  linear          float32    num_threads=1   1.0X  54.7ms vs 55.7ms\r\n(1, 3, 8, 256, 256) -> (16, 320, 320)  nearest         float32    num_threads=1   1.7X  40.5ms vs 24.4ms\r\n(1, 3, 8, 256, 256) -> (16, 320, 320)  nearest         uint8      num_threads=1   1.4X  33.1ms vs 23.7ms\r\n(1, 3, 8, 256, 256) -> (16, 320, 320)  nearest-exact   float32    num_threads=1   2.0X  47.5ms vs 24.3ms\r\n(1, 3, 8, 256, 256) -> (16, 320, 320)  nearest-exact   uint8      num_threads=1   1.7X  39.9ms vs 23.7ms\r\n\r\n(1, 3, 8, 256, 256) -> (16, 320, 320)  linear          float32    num_threads=2   2.2X  54.6ms vs 25.1ms\r\n(1, 3, 8, 256, 256) -> (16, 320, 320)  nearest         float32    num_threads=2   2.3X  21.2ms vs 9.3ms\r\n(1, 3, 8, 256, 256) -> (16, 320, 320)  nearest         uint8      num_threads=2   1.4X  16.5ms vs 12.0ms\r\n(1, 3, 8, 256, 256) -> (16, 320, 320)  nearest-exact   float32    num_threads=2   2.6X  24.3ms vs 9.3ms\r\n(1, 3, 8, 256, 256) -> (16, 320, 320)  nearest-exact   uint8      num_threads=2   1.7X  19.9ms vs 12.0ms\r\n\r\n(1, 3, 8, 256, 256) -> (16, 320, 320)  linear          float32    num_threads=12  10X   54.3ms vs 5.4ms\r\n(1, 3, 8, 256, 256) -> (16, 320, 320)  nearest         float32    num_threads=12  2.5X  4.1ms vs 1.6ms\r\n(1, 3, 8, 256, 256) -> (16, 320, 320)  nearest         uint8      num_threads=12  1.4X  2.9ms vs 2.1ms\r\n(1, 3, 8, 256, 256) -> (16, 320, 320)  nearest-exact   float32    num_threads=12  1.7X  4.8ms vs 2.8ms\r\n(1, 3, 8, 256, 256) -> (16, 320, 320)  nearest-exact   uint8      num_threads=12  1.7X  3.5ms vs 2.1ms\r\n\r\n(1, 3, 8, 256, 256) -> (16, 320, 320)  linear          float32    num_threads=32  20X   54.2ms vs 2.7ms\r\n(1, 3, 8, 256, 256) -> (16, 320, 320)  nearest         float32    num_threads=32  1.5X  2.2ms vs 1.5ms\r\n(1, 3, 8, 256, 256) -> (16, 320, 320)  nearest         uint8      num_threads=32  1.6X  1.3ms vs 0.8ms\r\n(1, 3, 8, 256, 256) -> (16, 320, 320)  nearest-exact   float32    num_threads=32  1.3X  1.8ms vs 1.4ms\r\n(1, 3, 8, 256, 256) -> (16, 320, 320)  nearest-exact   uint8      num_threads=32  1.7X  1.3ms vs 0.8ms\r\n\r\n(1, 3, 16, 320, 320) -> (8, 256, 256)  linear          float32    num_threads=1   1.0X  15.4ms vs 16.0ms\r\n(1, 3, 16, 320, 320) -> (8, 256, 256)  nearest         float32    num_threads=1   2.0X  12.3ms vs 6.0ms\r\n(1, 3, 16, 320, 320) -> (8, 256, 256)  nearest         uint8      num_threads=1   1.6X  12.0ms vs 7.7ms\r\n(1, 3, 16, 320, 320) -> (8, 256, 256)  nearest-exact   float32    num_threads=1   2.2X  13.1ms vs 6.0ms\r\n(1, 3, 16, 320, 320) -> (8, 256, 256)  nearest-exact   uint8      num_threads=1   1.7X  12.8ms vs 7.6ms\r\n\r\n(1, 3, 16, 320, 320) -> (8, 256, 256)  linear          float32    num_threads=2   1.9X  15.5ms vs 8.2ms\r\n(1, 3, 16, 320, 320) -> (8, 256, 256)  nearest         float32    num_threads=2   2.0X  6.1ms vs 3.1ms\r\n(1, 3, 16, 320, 320) -> (8, 256, 256)  nearest         uint8      num_threads=2   1.5X  6.0ms vs 3.9ms\r\n(1, 3, 16, 320, 320) -> (8, 256, 256)  nearest-exact   float32    num_threads=2   2.2X  6.6ms vs 3.0ms\r\n(1, 3, 16, 320, 320) -> (8, 256, 256)  nearest-exact   uint8      num_threads=2   1.7X  6.5ms vs 3.9ms\r\n\r\n(1, 3, 16, 320, 320) -> (8, 256, 256)  linear          float32    num_threads=12  11X   15.5ms vs 1.4ms\r\n(1, 3, 16, 320, 320) -> (8, 256, 256)  nearest         float32    num_threads=12  2.0X  1.1ms vs 0.5ms\r\n(1, 3, 16, 320, 320) -> (8, 256, 256)  nearest         uint8      num_threads=12  1.6X  1.1ms vs 0.7ms\r\n(1, 3, 16, 320, 320) -> (8, 256, 256)  nearest-exact   float32    num_threads=12  2.1X  1.2ms vs 0.5ms\r\n(1, 3, 16, 320, 320) -> (8, 256, 256)  nearest-exact   uint8      num_threads=12  1.5X  1.1ms vs 0.8ms\r\n\r\n(1, 3, 16, 320, 320) -> (8, 256, 256)  linear          float32    num_threads=32  15X   15.4ms vs 1.0ms\r\n(1, 3, 16, 320, 320) -> (8, 256, 256)  nearest         float32    num_threads=32  1.7X  0.7ms vs 0.4ms\r\n(1, 3, 16, 320, 320) -> (8, 256, 256)  nearest         uint8      num_threads=32  1.3X  0.7ms vs 0.5ms\r\n(1, 3, 16, 320, 320) -> (8, 256, 256)  nearest-exact   float32    num_threads=32  3X    0.7ms vs 0.2ms\r\n(1, 3, 16, 320, 320) -> (8, 256, 256)  nearest-exact   uint8      num_threads=32  2.6X  0.7ms vs 0.3ms\r\n\r\n(1, 3, 16, 320, 320) -> (32, 512, 512)  linear          float32    num_threads=1   1.0X  295.6ms vs 304.3ms\r\n(1, 3, 16, 320, 320) -> (32, 512, 512)  nearest         float32    num_threads=1   1.5X  223.2ms vs 144.3ms\r\n(1, 3, 16, 320, 320) -> (32, 512, 512)  nearest         uint8      num_threads=1   1.5X  177.7ms vs 121.0ms\r\n(1, 3, 16, 320, 320) -> (32, 512, 512)  nearest-exact   float32    num_threads=1   1.8X  258.6ms vs 145.3ms\r\n(1, 3, 16, 320, 320) -> (32, 512, 512)  nearest-exact   uint8      num_threads=1   1.6X  203.9ms vs 128.6ms\r\n\r\n(1, 3, 16, 320, 320) -> (32, 512, 512)  linear          float32    num_threads=2   1.8X  295.4ms vs 160.4ms\r\n(1, 3, 16, 320, 320) -> (32, 512, 512)  nearest         float32    num_threads=2   1.5X  119.0ms vs 80.2ms\r\n(1, 3, 16, 320, 320) -> (32, 512, 512)  nearest         uint8      num_threads=2   1.4X  84.8ms vs 60.6ms\r\n(1, 3, 16, 320, 320) -> (32, 512, 512)  nearest-exact   float32    num_threads=2   1.7X  136.1ms vs 80.1ms\r\n(1, 3, 16, 320, 320) -> (32, 512, 512)  nearest-exact   uint8      num_threads=2   1.7X  102.2ms vs 60.5ms\r\n\r\n(1, 3, 16, 320, 320) -> (32, 512, 512)  linear          float32    num_threads=12  9X    295.3ms vs 32.3ms\r\n(1, 3, 16, 320, 320) -> (32, 512, 512)  nearest         float32    num_threads=12  1.4X  25.2ms vs 18.7ms\r\n(1, 3, 16, 320, 320) -> (32, 512, 512)  nearest         uint8      num_threads=12  1.4X  16.5ms vs 11.9ms\r\n(1, 3, 16, 320, 320) -> (32, 512, 512)  nearest-exact   float32    num_threads=12  1.5X  28.1ms vs 18.8ms\r\n(1, 3, 16, 320, 320) -> (32, 512, 512)  nearest-exact   uint8      num_threads=12  1.7X  19.4ms vs 11.5ms\r\n\r\n(1, 3, 16, 320, 320) -> (32, 512, 512)  linear          float32    num_threads=32  18X   294.7ms vs 16.2ms\r\n(1, 3, 16, 320, 320) -> (32, 512, 512)  nearest         float32    num_threads=32  1.2X  14.4ms vs 12.5ms\r\n(1, 3, 16, 320, 320) -> (32, 512, 512)  nearest         uint8      num_threads=32  1.2X  5.9ms vs 4.8ms\r\n(1, 3, 16, 320, 320) -> (32, 512, 512)  nearest-exact   float32    num_threads=32  1.2X  14.5ms vs 12.5ms\r\n(1, 3, 16, 320, 320) -> (32, 512, 512)  nearest-exact   uint8      num_threads=32  1.4X  6.9ms vs 4.8ms\r\n\r\n(1, 3, 32, 512, 512) -> (16, 320, 320)  linear          float32    num_threads=1   0.9X  48.6ms vs 55.1ms\r\n(1, 3, 32, 512, 512) -> (16, 320, 320)  nearest         float32    num_threads=1   2.0X  38.8ms vs 19.2ms\r\n(1, 3, 32, 512, 512) -> (16, 320, 320)  nearest         uint8      num_threads=1   1.6X  37.6ms vs 23.8ms\r\n(1, 3, 32, 512, 512) -> (16, 320, 320)  nearest-exact   float32    num_threads=1   2.1X  41.2ms vs 19.2ms\r\n(1, 3, 32, 512, 512) -> (16, 320, 320)  nearest-exact   uint8      num_threads=1   1.7X  39.9ms vs 23.8ms\r\n\r\n(1, 3, 32, 512, 512) -> (16, 320, 320)  linear          float32    num_threads=2   1.9X  48.8ms vs 25.3ms\r\n(1, 3, 32, 512, 512) -> (16, 320, 320)  nearest         float32    num_threads=2   2.0X  19.2ms vs 9.5ms\r\n(1, 3, 32, 512, 512) -> (16, 320, 320)  nearest         uint8      num_threads=2   1.6X  18.8ms vs 12.0ms\r\n(1, 3, 32, 512, 512) -> (16, 320, 320)  nearest-exact   float32    num_threads=2   2.2X  20.5ms vs 9.5ms\r\n(1, 3, 32, 512, 512) -> (16, 320, 320)  nearest-exact   uint8      num_threads=2   1.7X  20.0ms vs 12.0ms\r\n\r\n(1, 3, 32, 512, 512) -> (16, 320, 320)  linear          float32    num_threads=12  11X   48.6ms vs 4.6ms\r\n(1, 3, 32, 512, 512) -> (16, 320, 320)  nearest         float32    num_threads=12  2.0X  3.4ms vs 1.7ms\r\n(1, 3, 32, 512, 512) -> (16, 320, 320)  nearest         uint8      num_threads=12  1.6X  3.3ms vs 2.1ms\r\n(1, 3, 32, 512, 512) -> (16, 320, 320)  nearest-exact   float32    num_threads=12  2.1X  3.6ms vs 1.7ms\r\n(1, 3, 32, 512, 512) -> (16, 320, 320)  nearest-exact   uint8      num_threads=12  1.7X  3.5ms vs 2.1ms\r\n\r\n(1, 3, 32, 512, 512) -> (16, 320, 320)  linear          float32    num_threads=32  27X   48.3ms vs 1.8ms\r\n(1, 3, 32, 512, 512) -> (16, 320, 320)  nearest         float32    num_threads=32  1.1X  2.2ms vs 2.0ms\r\n(1, 3, 32, 512, 512) -> (16, 320, 320)  nearest         uint8      num_threads=32  2.6X  2.1ms vs 0.8ms\r\n(1, 3, 32, 512, 512) -> (16, 320, 320)  nearest-exact   float32    num_threads=32  2.4X  2.3ms vs 0.9ms\r\n(1, 3, 32, 512, 512) -> (16, 320, 320)  nearest-exact   uint8      num_threads=32  2.6X  2.2ms vs 0.8ms\r\n\r\n```\r\n\r\n\r\n</details>\r\n\r\nCode:\r\n\r\n<details>\r\n\r\n\r\n```py\r\nimport operator_benchmark as op_bench\r\nimport torch\r\n\r\n\"\"\"Microbenchmarks for interpolate operator.\"\"\"\r\n\r\n\r\nclass InterpolateBenchmark(op_bench.TorchBenchmarkBase):\r\n    def init(self, input_size, output_size, chann
…
{"number": 89485, "title": "add channels last with mixed data type support for GroupNorm backward", "time": "2022-11-22T05:44:08Z", "body": "Stack from [ghstack](https://github.com/ezyang/ghstack) (oldest at bottom):\n* __->__ #89485\n* #88663\n* #88662\n\r\n\r\n### Motivation\r\n1. Add channels last support for GroupNorm backward to make sure GroupNorm fully support channels last.\r\n2. Same as #88663, mixed data type support is also needed for channels last implementation of GroupNorm backward.\r\n\r\n### Testing\r\nSingle socket (28cores):\r\n\r\n* Contiguous:\r\n\r\nshape | forward / s | forward / s | backward / s | backward / s\r\n-- | -- | -- | -- | --\r\nÂ  | fp32 | mixed fp32 bf16 | fp32 | mixed fp32 bf16\r\n[10, 128, 20, 20] | 3.20E-05 | 3.60E-05 | 8.31E-05 | 8.13E-05\r\n[10, 128, 50, 50] | 0.000126 | 0.000115 | 0.000356 | 0.000257\r\n\r\n\r\n* Channels Last:\r\n\r\nshape | forward / s | forward / s | backward / s | backward / s\r\n-- | -- | -- | -- | --\r\nÂ  | fp32 | mixed fp32 bf16 | fp32 | mixed fp32 bf16\r\n[10, 128, 20, 20] | 4.11E-05 | 4.12E-05 | 9.74E-05 | 9.66E-05\r\n[10, 128, 50, 50] | 0.000179 | 0.000178 | 0.000393 | 0.000317\r\n\r\n\r\nSingle core:\r\n\r\n* Contiguous:\r\n\r\nshape | forward / s | forward / s | backward / s | backward / s\r\n-- | -- | -- | -- | --\r\nÂ  | fp32 | mixed fp32 bf16 | fp32 | mixed fp32 bf16\r\n[10, 128, 20, 20] | 2.47E-04 | 2.53E-04 | 5.92E-04 | 4.50E-04\r\n[10, 128, 50, 50] | 0.001559 | 0.001384 | 0.004343 | 0.002436\r\n\r\n* Channels Last:\r\n\r\nshape | forward / s | forward / s | backward / s | backward / s\r\n-- | -- | -- | -- | --\r\nÂ  | fp32 | mixed fp32 bf16 | fp32 | mixed fp32 bf16\r\n[10, 128, 20, 20] | 2.27E-04 | 3.24E-04 | 0.0006224 | 0.000459\r\n[10, 128, 50, 50] | 0.00167 | 0.001278 | 0.0041858 | 0.003027\r\n\r\n\r\n\r\n\n\ncc @VitalyFedyunin @jgong5 @mingfeima @XiaobingSuper @sanchitintel @ashokei @jingxu10", "label": [{"id": 1294499454, "node_id": "MDU6TGFiZWwxMjk0NDk5NDU0", "url": "https://api.github.com/repos/pytorch/pytorch/labels/module:%20cpu", "name": "module: cpu", "color": "f7e101", "default": false, "description": "CPU specific problem (e.g., perf
…
and parallel on sliced tensor to avoid write conflict. Doing parallel on the sliced tensor is not optimal as the size of sliced tensor may be not big enough to parallel and also causes multiple parallelizations.\r\n\r\n`scatter_add ` is used to speedup for this case as `scatter_add ` parallels on the outer dimension of input and is serial on the inner dimension to avoid write conflict. `scatter_add ` only need one parallel and the size of outer dimensions is bigger to do parallel.\r\n\r\n\r\n### Testing\r\n\r\n- Single core:\r\n\r\nBefore:\r\n\r\nshape | fp32 / s | bf16 / s\r\n-- | -- | --\r\n[10, 128, 20, 20] | 2.82E-03 | 2.11E-03\r\n[10, 128, 50, 50] | 0.023604 | 0.023794\r\n\r\n\r\nAfter:\r\n\r\nshape | fp32 / s | bf16 / s\r\n-- | -- | --\r\n[10, 128, 20, 20] | 9.30E-04 | 1.66E-03\r\n[10, 128, 50, 50] | 0.005995 | 0.010003\r\n\r\n- Single socket (28 cores):\r\n\r\nBefore:\r\n\r\nshape | fp32 / s | bf16 / s\r\n-- | -- | --\r\n[10, 128, 20, 20] | 2.96E-03 | 2.52E-03\r\n[10, 128, 50, 50] | 0.012208 | 0.012568\r\n\r\nAfter:\r\n\r\nshape | fp32 / s | bf16 / s\r\n-- | -- | --\r\n[10, 128, 20, 20] | 7.44E-05 | 1.33E-04\r\n[10, 128, 50, 50] | 0.000333 | 0.000469\r\n\r\n\r\n\r\n\r\n", "label": [{"id": 1294499454, "node_id": "MDU6TGFiZWwxMjk0NDk5NDU0", "url": "https://api.github.com/repos/pytorch/pytorch/labels/module:%20cpu", "name": "module: cpu", "color": "f7e101", "default": false, "description": "CPU specific problem (e.g., perf, algorithm)"}, {"id": 1392590051, "node_id": "MDU6TGFiZWwxMzkyNTkwMDUx", "url": "https://api.github.com/re
…
{"number": 88064, "title": "add mixed data type support for LayerNorm backward on CPU", "time": "2022-10-31T03:03:16Z", "body": "### Motivation\r\nAmp provides convenience methods for mixed precision. If users use amp to run bfloat16 models, torch.autocast will keep module parameters in acc dtype which will leave gamma and beta in float while input/output will be in bfloat16. The same goes for backward: parameters are in float, and X & dX & dY are in bfloat16.\r\nMixed data type support for LayerNorm backward is also needed for model training with LayerNorm.\r\n\r\n### Testing\r\nSingle socket (icx, 32cores):\r\n| shape | fp32 forward (ms) | bf16 forward (ms) | mix forward (ms) | fp32 backward (ms) | bf16 backward (ms) | mix backward (ms) |\r\n| -- | -- | -- | -- | -- | -- | -- |\r\n| (1, 8, 16) | 0.012 | 0.012 | 0.012 | 0.071 | 0.065 | 0.062 |\r\n| (8, 8, 16) | 0.015 | 0.014 | 0.015 | 0.074 | 0.070 | 0.063 |\r\n| (32, 8, 16) | 0.062 | 0.016 | 0.016 | 0.073 | 0.073 | 0.072 |\r\n| (64, 128, 56, 56) | 2.467 | 0.907 | 0.0897 | 12.993 | 7.603 | 7.777 |\r\n| (64, 128, 256, 256) | 48.904 | 25.589 | 25.472 | 343.992 | 183.133 | 188.222 |\r\n\r\nSingle core(icx):\r\n| shape | fp32 forward (ms) | bf16 forward (ms) | mix forward (ms) | fp32 backward (ms) | bf16 backward (ms) | mix backward (ms) |\r\n| -- | -- | -- | -- | -- | -- | -- |\r\n| (1, 8, 16) | 0.012 | 0.012 | 0.012 | 0.050 | 0.050 | 0.050 |\r\n| (8, 8, 16) | 0.014 | 0.014 | 0.014 | 0.052 | 0.054 | 0.053 |\r\n| (32, 8, 16) | 0.034 | 0.019 | 0.018 | 0.059 | 0.067 | 0.066 |\r\n| (64, 128, 56, 56) | 66.791| 17.725 | 19.799 | 119.431 | 106.123 | 107.446 |\r\n| (64, 128, 256, 256) | 1542.477 | 402.132 | 527.044 | 3019.437 | 2336.318 | 2448.320 |\r\n\r\ncc @VitalyFedyunin @jgong5 @mingfeima @XiaobingSuper @sanchitintel @ashokei @jingxu10", "label": [{"id": 1294499454, "node_id": "MDU6TGFiZWwxMjk0NDk5NDU0", "url": "https://api.github.com/repos/pytorch/pytorch/labels/module:%20cpu", "name": "module: cpu", "color": "f7e101", "default": false, "description": "CPU specific problem (e.g
…
r=always -faligned-new -Wno-unused-but-set-variable -Wno-maybe-uninitialized -fno-math-errno -fno-trapping-math -Werror=format -Werror=cast-function-type -Wno-stringop-overflow, LAPACK_INFO=mkl, PERF_WITH_AVX=1, PERF_WITH_AVX2=1, PERF_WITH_AVX512=1, TORCH_VERSION=1.13.0, USE_CUDA=OFF, USE_CUDNN=OFF, USE_EXCEPTION_PTR=1, USE_GFLAGS=OFF, USE_GLOG=OFF, USE_MKL=ON, USE_MKLDNN=ON, USE_MPI=OFF, USE_NCCL=OFF, USE_NNPACK=ON, USE_OPENMP=ON, USE_ROCM=OFF,\r\n```\r\n\r\n#### This is before:\r\n```\r\nNum threads: 1\r\n[---------------------------- Downsampling (bilinear): torch.Size([1, 1, 906, 438]) -> (320, 196) ----------------------------]\r\n                                 |  Reference, PIL 9.2.0, mode: L  |  1.14.0a0+git1bf079d cpu  |  Reference, PIL 9.2.0, mode: F\r\n1 threads: --------------------------------------------------------------------------------------------------------------------\r\n       contiguous torch.float32  |              585.9              |           1094.0          |              1293.7\r\n\r\nTimes are in microseconds (us).\r\n\r\n[---------------------------- Downsampling (bilinear): torch.Size([1, 1, 906, 438]) -> (460, 220) ----------------------------]\r\n                                 |  Reference, PIL 9.2.0, mode: L  |  1.14.0a0+git1bf079d cpu  |  Reference, PIL 9.2.0, mode: F\r\n1 threads: --------------------------------------------------------------------------------------------------------------------\r\n       contiguous torch.float32  |              840.8              |           1429.5          |              1635.7\r\n\r\nTimes are in microseconds (us).\r\n\r\n[----------------------------- Downsampling (bilinear): torch.Size([1, 1, 906, 438]) -> (120, 96) ----------------------------]\r\n                                 |  Reference, PIL 9.2.0, mode: L  |  1.14.0a0+git1bf079d cpu  |  Reference, PIL 9.2.0, mode: F\r\n1 threads: --------------------------------------------------------------------------------------------------------------------\r\n       contiguous torch.float32  |              210.9              |           756.8           |              965.5\r\n\r\nTimes are in microseconds (us).\r\n\r\n[---------------------------- Downsampling (bilinear): torch.Size([1, 1, 906, 438]) -> (1200, 196) ---------------------------]\r\n                                 |  Reference, PIL 9.2.0, mode: L  |  1.14.0a0+git1bf079d cpu  |  Reference, PIL 9.2.0, mode: F\r\n1 threads: --------------------------------------------------------------------------------------------------------------------\r\n       contiguous torch.float32  |               2.1               |            3.6            |               4.2\r\n\r\nTimes are in milliseconds (ms).\r\n\r\n[---------------------------- Downsampling (bilinear): torch.Size([1, 1, 906, 438]) -> (120, 1200) ---------------------------]\r\n                                 |  Reference, PIL 9.2.0, mode: L  |  1.14.0a0+git1bf079d cpu  |  Reference, PIL 9.2.0, mode: F\r\n1 threads: --------------------------------------------------------------------------------------------------------------------\r\n       contiguous torch.float32  |              505.8              |           853.8           |              1121.4\r\n\r\nTimes are in microseconds (us).\r\n\r\n[-------------------- Downsampling (bilinear): torch.Size([1, 3, 906, 438]) -> (320, 196) ---------------------]\r\n                                                  |  Reference, PIL 9.2.0, mode: RGB  |  1.14.0a0+git1bf079d cpu\r\n1 threads: -----------------------------------------------------------------------------------------------------\r\n      channels_first contiguous torch.float32     |                2.9                |            3.2\r\n      channels_last non-contiguous torch.float32  |                2.9                |            4.2\r\n\r\nTimes are in milliseconds (ms).\r\n\r\n[-------------------- Downsampling (bilinear): torch.Size([1, 3, 906, 438]) -> (460, 220) ---------------------]\r\n                                                  |  Reference, PIL 9.2.0, mode: RGB  |  1.14.0a0+git1bf079d cpu\r\n1 threads: -----------------------------------------------------------------------------------------------------\r\n      channels_first contiguous torch.float32     |                3.7                |            4.2\r\n      channels_last non-contiguous torch.float32  |                3.7                |            6.0\r\n\r\nTimes are in milliseconds (ms).\r\n\r\n[--------------------- Downsampling (bilinear): torch.Size([1, 3, 906, 438]) -> (120, 96) ---------------------]\r\n                                                  |  Reference, PIL 9.2.0, mode: RGB  |  1.14.0a0+git1bf079d cpu\r\n1 threads: -----------------------------------------------------------------------------------------------------\r\n      channels_first contiguous torch.float32     |                1.8                |            2.2\r\n      channels_last non-contiguous torch.float32  |                1.8                |            2.4\r\n\r\nTimes are in milliseconds (ms).\r\n\r\n[-------------------- Downsampling (bilinear): torch.Size([1, 3, 906, 438]) -> (1200, 196) --------------------]\r\n                                                  |  Reference, PIL 9.2.0, mode: RGB  |  1.14.0a0+git1bf079d cpu\r\n1 threads: -----------------------------------------------------------------------------------------------------\r\n      channels_first contiguous torch.float32     |                9.7                |            10.7\r\n      channels_last non-contiguous torch.float32  |                9.7                |            14.6\r\n\r\nTimes are in milliseconds (ms).\r\n\r\n[-------------------- Downsampling (bilinear): torch.Size([1, 3, 906, 438]) -> (120, 1200) --------------------]\r\n                                                  |  Reference, PIL 9.2.0, mode: RGB  |  1.14.0a0+git1bf079d cpu\r\n1 threads: -----------------------------------------------------------------------------------------------------\r\n      channels_first contiguous torch.float32     |                2.3                |            2.4\r\n      channels_last non-contiguous torch.float32  |                2.4                |            4.1\r\n\r\nTimes are in milliseconds (ms).\r\n```\r\n\r\n#### This is after:\r\n```\r\nNum threads: 1\r\n[---------------------------- Downsampling (bilinear): torch.Size([1, 1, 906, 438]) -> (320, 196) ----------------------------]\r\n                                 |  Reference, PIL 9.2.0, mode: L  |  1.14.0a0+git1bf079d cpu  |  Reference, PIL 9.2.0, mode: F\r\n1 threads: --------------------------------------------------------------------------------------------------------------------\r\n       contiguous torch.float32  |              580.4              |           558.9           |              1360.5\r\n\r\nTimes are in microseconds (us).\r\n\r\n[---------------------------- Downsampling (bilinear): torch.Size([1, 1, 906, 438]) -> (460, 220) ----------------------------]\r\n                                 |  Reference, PIL 9.2.0, mode: L  |  1.14.0a0+git1bf079d cpu  |  Reference, PIL 9.2.0, mode: F\r\n1 threads: --------------------------------------------------------------------------------------------------------------------\r\n       contiguous torch.float32  |              841.6              |           641.7           |              1634.8\r\n\r\nTimes are in microseconds (us).\r\n\r\n[----------------------------- Downsampling (bilinear): torch.Size([1, 1, 906, 438]) -> (120, 96) ----------------------------]\r\n                                 |  Reference, PIL 9.2.0, mode: L  |  1.14.0a0+git1bf079d cpu  |  Reference, PIL 9.2.0, mode: F\r\n1 threads: --------------------------------------------------------------------------------------------------------------------\r\n       contiguous torch.float32  |              210.3              |           515.3           |              944.5\r\n\r\nTimes are in microseconds (us).\r\n\r\n[---------------------------- Downsampling (bilinear): torch.Size([1, 1, 906, 438]) -> (1200, 196) ---------------------------]\r\n                                 |  Reference, PIL 9.2.0, mode: L  |  1.14.0a0+git1bf079d cpu  |  Reference, PIL 9.2.0, mode: F\r\n1 threads: --------------------------------------------------------------------------------------------------------------------\r\n       contiguous torch.float32  |               2.1               |            1.5            |               4.4\r\n\r\nTimes are in milliseconds (ms).\r\n\r\n[---------------------------- Downsampling (bilinear): torch.Size([1, 1, 906, 438]) -> (120, 1200) ---------------------------]\r\n                                 |  Reference, PIL 9.2.0, mode: L  |  1.14.0a0+git1bf079d cpu  |  Reference, PIL 9.2.0, mode: F\r\n1 threads: --------------------------------------------------------------------------------------------------------------------\r\n       contiguous torch.float32  |              505.4              |           762.3           |              1105.1\r\n\r\nTimes are in microseconds (us).\r\n\r\n[-------------------- Downsampling (bilinear): torch.Size([1, 3, 906, 438]) -> (320, 196) ---------------------]\r\n                                                  |  Reference, PIL 9.2.0, mode: RGB  |  1.14.0a0+git1bf079d cpu\r\n1 threads: -----------------------------------------------------------------------------------------------------\r\n      channels_first contiguous torch.float32     |                2.9                |            1.6\r\n      channels_last non-contiguous torch.float32  |                3.0                |            4.4\r\n\r\nTimes are in milliseconds (ms).\r\n\r\n[-------------------- Downsampling (bilinear): torch.Size([1, 3, 906, 438]) -> (460, 220) ---------------------]\r\n                                                  |  Reference, PIL 9.2.0, mode: RGB  |  1.14.0a0+git1bf079d cpu\r\n1 threads: -----------------------------------------------------------------------------------------------------\r\n      channels_first contiguous torch.float32     |                3.7                |            1.8\r\n      channels_last non-contiguous torch.float32  |                3.9                |            6.2\r\n\r\nTimes are in milliseconds (ms).\r\n\r\n[--------------------- Downsampling (bilinear): torch.Size([1, 3, 906, 438]) -> (120, 96) ---------------------]\r\n                                                  |  Reference, PIL 9.2.0, mode: RGB  |  1.14.0a0+git1bf079d cpu\r\n1 threads: -----------------------------------------------------------------------------------------------------\r\n      channels_first contiguous torch.float32     |                1.8                |            1.5\r\n      channels_last non-contiguous torch.float32  |                1.9                |            2.4\r\n\r\nTimes are in milliseconds (ms).\r\n\r\n[-------------------- Downsampling (bilinear): torch.Size([1, 3, 906, 438]) -> (1200, 196) --------------------]\r\n                                                  |  Reference, PIL 9.2.0, mode: RGB  |  1.14.0a0+git1bf079d cpu\r\n1 threads: -----------------------------------------------------------------------------------------------------\r\n      channels_first contiguous torch.float32     |                10.2               |             4.5\r\n      channels_last non-contiguous torch.float32  |                 9.6               |            14.6\r\n\r\nTimes are in milliseconds (ms).\r\n\r\n[-------------------- Downsampling (bilinear): torch.Size([1, 3, 906, 438]) -> (120, 1200) --------------------]\r\n                                                  |  Reference, PIL 9.2.0, mode: RGB  |  1.14.0a0+git1bf079d cpu\r\n1 threads: -----------------------------------------------------------------------------------------------------\r\n      channels_first contiguous torch.float32     |                2.4                |            2.3\r\n      channels_last non-contiguous torch.float32  |      
…
 ccp_infra_version='3' ccp_infra_timestamp='1661742578237' ccp_infra_user_hash='526604988' ccp_infra_copy_id='c1817984-ca7b-456b-b62a-28ac3a7321f1' data-ccp-timestamp='1661742578237'><html><head><meta name=ProgId content=Excel.Sheet><meta name=Generator content=\"Microsoft Excel 15\"></head><body link=\"#0563C1\" vlink=\"#954F72\">\r\n\r\nExecution CPU | Vector DIM | Word Num | Indices | Pytorch (us) | Pytorch + NNC Embedding (us) | Perf Improvement\r\n-- | -- | -- | -- | -- | -- | --\r\n1 | 16 | 16 | [16] | 9.72 | 4.72 | 105.93%\r\n1 | 16 | 16 | [128] | 10.47 | 5.69 | 84.01%\r\n1 | 16 | 16 | [256, 256] | 570.15 | 199.63 | 185.60%\r\n1 | 16 | 10000 | [16] | 10.02 | 4.76 | 110.50%\r\n1 | 16 | 10000 | [128] | 10.41 | 5.79 | 79.79%\r\n1 | 16 | 10000 | [256, 256] | 762.89 | 268.16 | 184.49%\r\n1 | 128 | 100 | [16] | 10.36 | 5.08 | 103.94%\r\n1 | 128 | 100 | [128] | 13.57 | 5.82 | 133.16%\r\n1 | 128 | 100 | [256, 256] | 27898.13 | 13461.12 | 107.25%\r\n1 | 128 | 10000 | [16] | 10.38 | 5.13 | 102.34%\r\n1 | 128 | 10000 | [128] | 13.51 | 6.15 | 119.67%\r\n1 | 128 | 10000 | [256, 256] | 29312.62 | 14779.03 | 98.34%\r\n1 | 512 | 10000 | [16] | 11.41 | 5.29 | 115.69%\r\n1 | 512 | 10000 | [128] | 44.72 | 10.04 | 345.42%\r\n1 | 512 | 10000 | [256, 256] | 122491.56 | 62629.17 | 95.58%\r\n4 | 128 | 10000 | [16] | 10.45 | 4.96 | 110.69%\r\n4 | 128 | 10000 | [128] | 13.78 | 5.99 | 130.05%\r\n4 | 128 | 10000 | [256, 256] | 9771.33 | 4973.41 | 96.47%\r\n4 | 512 | 10000 | [16] | 11.58 | 5.54 | 109.03%\r\n4 | 512 | 10000 | [128] | 27.39 | 8.96 | 205.69%\r\n4 | 512 | 10000 | [256, 256] | 40666.72 | 20633.8 | 97.09%\r\n\r\n</body></html></div><!--EndFragment-->\r\n</body>\r\n</html>\n\ncc @EikanWang @jgong5 @wenzhe-nrv @sanchitintel", "label": [{"id": 679953983, "node_id": "MDU6TGFiZWw2Nzk5NTM5ODM=", "url": "https://api.github.com/repos/pytorch/pytorch/labels/oncall:%20jit", "name": "oncall: jit", "color": "c5def5", "default": false, "description": "Add this issue/PR to JIT oncall triag
…
